students/IS22/Сологубова Влада Андреевна/Laba2_1/cifar100_CNN_avg.onnx (onnx, 13936 bytes, 5 tensors)

seq.1.bias f4 [32]
000000 b0 7c c5 bc 31 90 d2 bb a1 43 13 bd cd 25 20 3d
       -0.024107307 -0.0064258804 -0.035953168 0.03909855
000010 53 17 82 bd 9e b8 2b bd 91 55 bc 3d 87 b5 a4 3d
       -0.06352105 -0.04192411 0.09196008 0.08042436
000020 57 98 45 3d 7a 77 db 3d 48 3a 11 bd 06 bb aa bd
       0.048240986 0.10716148 -0.035455972 -0.08336453
000030 3e 65 dc bd b7 99 99 bd 23 60 ed 3c 95 7b 39 bd
       -0.10761498 -0.07500022 0.028976506 -0.045283873
000040 0b 9d 5a 3c 1c 83 8c 3d f1 da 26 3d 82 0d f0 3b
       0.013343106 0.06860945 0.040736143 0.007325829
000050 97 8b 0b bd 5f 20 ba 3c e4 cc 37 bd 6f 79 e7 bd
       -0.03406867 0.022720514 -0.044873133 -0.113024585
000060 05 ec 0c bc 74 db c7 3d 2a 7d c9 bb 22 87 80 bd
       -0.008601193 0.09758654 -0.006148954 -0.062757745
000070 7c fc d8 3b 52 44 ad bd b7 19 cf bd 30 0b ab 3d
       0.0066218954 -0.08460297 -0.101123266 0.08351743

seq.3.bias f4 [64]
000000 9c a2 d3 3c cf 5b a8 ba fd 05 00 3d e4 cc 62 bc
       0.025834374 -0.0012844744 0.03125571 -0.013842795
000010 cd 4b db 3b 74 a5 09 3d 5d 58 a9 bc f2 ba fd 3c
       0.0066923858 0.033605054 -0.020672018 0.030972932
000020 d8 8f ef b9 5e 91 25 3d 21 2f 4f 3d a3 89 bc 3c
       -0.00045692804 0.040421836 0.050582055 0.023014849
000030 c4 51 69 3d 88 f8 04 bc 2b da 0a 3c 6c 79 49 bd
       0.056962743 -0.008115895 0.008474867 -0.049188063
000040 e7 43 4d bd b6 98 8e 3c 69 ef 14 bd b7 d7 75 bc
       -0.050113585 0.017406803 -0.03636113 -0.015005044
000050 69 b7 22 3d 58 e5 9b 3b 57 94 1e 3d d4 b7 ba bb
       0.039725695 0.0047575645 0.038715687 -0.0056981836
000060 33 37 73 bc e0 f8 39 bd 22 ca fc 3c c3 d7 29 3b
       -0.0148447035 -0.04540336 0.030858103 0.0025915958
000070 5f ed 00 3d 02 7b a0 bc 57 e6 51 bc 48 77 d2 bc
       0.031476375 -0.019589905 -0.012811265 -0.025691643
000080 75 41 12 3d 44 a4 13 bd 1b 62 b3 3c 2c ec 45 bd
       0.035706956 -0.036045328 0.021897366 -0.048320934
000090 f3 c3 0a 3d 39 8e da 3c 2b 97 89 bb 93 f5 02 3d
       0.033878278 0.026679145 -0.004198929 0.03197248
0000a0 61 4e 71 bc ee 90 58 3d 90 13 11 bd 56 80 dc 3a
       -0.01472816 0.05287259 -0.035419047 0.0016822915
0000b0 6a 96 0a 3d 38 c9 4f 3d dc 3e 12 bd 78 7e 42 bd
       0.033834852 0.050729007 -0.03570448 -0.04748389
0000c0 92 0c 56 3d 71 97 06 bd 87 48 be bc 46 42 b3 bc
       0.05225808 -0.03285927 -0.023227943 -0.021882188
0000d0 c8 83 f8 bc de 47 34 bd d4 38 40 3c 8a 76 56 bc
       -0.030336276 -0.04401385 0.011732299 -0.013089785
0000e0 1a ce 0f 3d 47 80 b3 bb 10 59 a5 bb e2 60 90 3c
       0.035108663 -0.0054779383 -0.0050460175 0.017624322
0000f0 9a dc bc 3c 0d ec 24 bb 9e ee 37 bd 20 08 c0 bb
       0.02305441 -0.0025165111 -0.044905297 -0.0058603436

seq.7.bias f4 [3]
000000 60 3c a5 bd 0c da 5e bd 38 28 55 bd
       -0.08068156 -0.054407164 -0.05204031

seq.0.mean f4 [1, 3, 1, 1]
000000 f7 e4 01 3f be 30 f9 3e dc d7 e1 3e
       0.5074 0.4867 0.4411

seq.0.std f4 [1, 3, 1, 1]
000000 29 ed 4d 3e 03 78 4b 3e 29 5c 4f 3e
       0.2011 0.1987 0.2025
